models/mister_butt.onnx (onnx, 206810 bytes, 9 tensors)

layer1.weight f4 [32, 1536]
000000 9c 09 bc bc 15 3f 58 3c 42 c4 c0 3a da 3d 13 3d
       -0.0229538 0.013198634 0.0014706927 0.035947658
000010 d8 f7 63 3c 04 bb af 3c 36 85 11 3c 98 a1 60 3c
       0.013914071 0.02145148 0.008881858 0.013710402
000020 97 02 85 bc 88 0d 90 3c c1 eb 49 3b 90 43 f1 3a
       -0.016236586 0.017584577 0.0030810686 0.0018406976
000030 4f 0e ee 3b 61 1f 7d bc 79 15 88 3b 6b 61 17 bc
       0.0072648893 -0.015449376 0.0041529504 -0.009239535
000040 be fb 14 3d 83 1d 20 bc 57 e3 c6 bc 7b 64 bf bb
       0.036372893 -0.009772661 -0.024278326 -0.0058408356
000050 e7 48 8b bb 20 9f 50 bc 17 17 13 bc 7a 66 cb 3c
       -0.004250634 -0.012733251 -0.008977673 0.024829138
000060 99 26 b4 bc c7 21 91 3c 1f a0 97 bb 69 fe d7 bc
       -0.021991061 0.017716302 -0.004627242 -0.02636643
000070 ea c7 29 3c 67 63 94 3c 57 f8 98 bc e4 86 60 3b
       0.010362605 0.018113805 -0.018673105 0.0034260089
000080 9c 39 d5 bc d3 bf a6 bc 2d 0a 29 3c 2c 4d 25 3b
       -0.026028447 -0.02035514 0.0103173675 0.0025223
000090 99 b3 78 3c 9f 3f 62 bc 2e 1f a1 3c a5 52 7b bb
       0.015179538 -0.013809114 0.019668188 -0.003834882
0000a0 c3 79 2c 3c 5b f3 68 3c 48 c8 03 bb b3 68 f2 3b
       0.010527077 0.014218177 -0.002010839 0.007397735
0000b0 73 7f b0 3b 34 20 02 bc 9f ca f2 bb cb e9 c0 bc
       0.005386287 -0.007942248 -0.007409408 -0.023548981
0000c0 5e 58 cc 3c 77 90 af bc 42 ac 48 ba cc 41 a4 3c
       0.02494448 -0.02143119 -0.0007655063 0.020050906
0000d0 ad 7f a7 ba af d0 c6 bc 43 07 a2 3b d9 7f e8 bc
       -0.0012779139 -0.02426943 0.0049447133 -0.028381275
0000e0 eb dc 8a bb b0 da 19 3b 34 c9 c6 3b be 86 13 3c
       -0.0042377613 0.0023476295 0.0060664658 0.009004293
0000f0 62 f4 c5 ba 01 8d b5 3c 28 c5 f2 3b c3 be 3f 3c
       -0.0015102739 0.022161962 0.0074087568 0.011703196
000100 98 2d bf 3c 16 a3 97 b9 61 8f 23 bc 7d b3 3e 3c
       0.02333717 -0.00028922473 -0.009982915 0.011639473
000110 6b 6d e4 bb 76 5e 87 3a 23 5e ac 3c 87 46 c4 3c
       -0.0069710515 0.0010327834 0.021040982 0.023959411
000120 5a 57 31 3c a7 c8 9e 3c 52 cb c1 3c cb 56 08 3c
       0.010824049 0.019382788 0.023656521 0.008321474
000130 f0 36 d5 bc 5b fc 01 bd c8 c8 8a 3b 13 37 fc bb
       -0.026027173 -0.031734806 0.004235361 -0.007696995
000140 c8 b0 08 bd eb 96 21 3c 85 59 7a bb 51 af a2 bc
       -0.033371717 0.009862642 -0.003820033 -0.019858988
000150 83 17 80 bc 69 0e 86 3c 7e 3f 10 bc f9 1f 92 3b
       -0.015636211 0.016364293 -0.0088042 0.004459378
000160 a4 f4 88 bc c1 c9 06 bc 81 93 49 bc 05 d2 62 bc
       -0.016718216 -0.008226813 -0.012303234 -0.013844018
000170 e4 f0 f8 3c 7b 12 68 3b 67 4d 74 bb 27 6b 84 3c
       0.030388303 0.0035411406 -0.003727758 0.016164375
000180 2a d2 bc 3c 1c 72 ef 3b 08 a2 88 3c 74 d0 14 3c
       0.023049433 0.007307304 0.016678825 0.009082902
000190 14 3c 1d bc b4 4f 6e bc 78 7f 2d 3c 74 c2 49 bc
       -0.009596843 -0.01454537 0.010589473 -0.012314428
0001a0 c7 e5 c4 3c 3c a8 f9 3b e4 f2 41 bc 48 c3 27 bd
       0.024035348 0.007618932 -0.011837695 -0.04095772
0001b0 07 a5 63 3a 1b 2a 35 bc 2a 6d 01 bc 2c 1b 1a 3c
       0.0008683954 -0.011057402 -0.007899562 0.009405892
0001c0 88 e1 89 bc 6a 17 bf ba 4a f5 6d bc f0 39 19 ba
       -0.016831174 -0.0014579121 -0.0145238135 -0.000584512
0001d0 b9 4b a6 3b 2b e4 39 3c b8 d0 95 bc 3f 87 1b 3d
       0.005074945 0.011345903 -0.018288001 0.037970778
0001e0 e5 29 61 bc cb b2 50 bb c2 f6 a4 bc 10 85 53 3b
       -0.013742899 -0.003184485 -0.020137195 0.0032275356
0001f0 0a a8 fd 3b e1 6c 90 bc bf dc 85 bc 0b ca 47 bc
       0.007740979 -0.017630043 -0.016340612 -0.012194167
000200 eb 63 8d bc 9b 3c 0d bd 66 65 2f 3c e9 df 7d bc
       -0.017259559 -0.034481626 0.010705328 -0.015495279
000210 c3 0e 5f bb 24 97 8e 3c 9e 56 27 bc d5 a9 b6 bc
       -0.0034035898 0.017406054 -0.010213522 -0.02229778
000220 4e 3e b8 bc 9e 9f da bb bf 6e 55 3b e5 21 57 b8
       -0.022490647 -0.00667186 0.003256723 -5.129156e-05
000230 37 4a dc 3c 23 50 9f 3c 68 3f 2f bc e9 e3 6e b8
       0.026890857 0.019447392 -0.01069627 -5.695588e-05
000240 0a 17 b5 3c 27 1e 1e bc 5d bd 7b bc a5 6f 82 3b
       0.022105712 -0.009650744 -0.015364972 0.003980594
000250 f7 f8 c8 bb 24 20 9f bc 34 0d 41 bb 9d 03 d5 bc
       -0.0061331945 -0.019424506 -0.0029457333 -0.0260027
000260 0d 6b 11 ba 65 20 ea 3a 98 95 49 bc 75 3d b4 3b
       -0.0005547263 0.0017862438 -0.012303732 0.0055004903
000270 0a 4b df 3c c9 74 18 3d af e2 37 b9 eb 12 57 3b
       0.027257461 0.03722075 -0.00017536686 0.0032817672
000280 5e 60 be 3c 33 64 74 bc 4e 69 0e bc a4 84 80 3c
       0.02323931 -0.0149164675 -0.008692099 0.015688248
000290 40 03 e7 bb a9 af 75 bc e7 48 fc 3b 28 94 b0 3b
       -0.007049948 -0.014995494 0.0076991203 0.0053887554
0002a0 82 46 9a bb 36 3a 4e bb f7 bf 00 3c cc a4 1d bc
       -0.004708112 -0.0031467802 0.007858268 -0.00962181
0002b0 da bf 09 3b f1 6d b1 bc ba da 25 bb 39 da be bc
       0.0021018893 -0.02165887 -0.0025307373 -0.023297416
0002c0 73 68 0b 3b 98 2a 83 3b a8 db a3 ba d2 fc 68 bc
       0.0021271973 0.0040028803 -0.0012501376 -0.014220433
0002d0 88 60 68 3c 13 98 80 3c 54 af 37 bc 26 89 a2 39
       0.014183171 0.015697515 -0.011211235 0.0003100123
0002e0 fc c5 1e 3b 45 d2 9f bc b8 2a b7 bb 06 41 ec ba
       0.0024226895 -0.019509444 -0.0055898093 -0.001802475
0002f0 ab 6f 8a 3b 08 93 a1 bc 3d 03 56 3b 12 ed f2 ba
       0.0042247376 -0.01972343 0.0032655739 -0.0018533787
000300 e5 b7 e6 bc 79 6c 7a bc 1d fb e1 3c 8b bb 0c 3d
       -0.02816386 -0.015284651 0.02758556 0.034358542
000310 fe 01 5f bc 1e d7 c0 3c 0c 5b db bb 23 27 a3 bc
       -0.013611315 0.023540076 -0.0066942032 -0.019916123
000320 ca cb 5e bc 29 2c ce bb 3d c1 98 3c 7c 61 e3 bc
       -0.013598392 -0.0062918854 0.01864683 -0.027756445
000330 5d 9c c1 bc 16 d0 b7 bc 82 47 b4 3b cf af ee 3b
       -0.02363413 -0.02243809 0.0055016885 0.0072841416
000340 c2 56 9a 3c 98 d9 ac bc 79 13 13 3c fe db 6f 3c
       0.018840197 -0.02109985 0.008976811 0.014639853
000350 02 9e b1 bc 2f be a6 3a 18 57 26 bc cb 37 d2 3c
       -0.02168179 0.0012721474 -0.010152601 0.02566137
000360 5b fd 8a 3c 85 59 7b 3b 5b 13 f1 bb 23 37 08 bb
       0.016966512 0.0038352918 -0.0073570437 -0.0020784817
000370 3c 0b 5c 3c e7 94 39 3c e7 a5 3d 3c 5b de 4b 3c
       0.013430413 0.011327005 0.011575199 0.01244315
000380 9e 9b 8b 3b 4c 60 05 bc b2 59 0c bc 19 31 3a bb
       0.0042604944 -0.008140635 -0.008566307 -0.0028410612
000390 70 5a 91 3c a1 f5 98 3b a9 2c 87 bc 39 bf fa 3b
       0.01774332 0.004667953 -0.016500788 0.00765219
0003a0 30 d6 91 bc 86 17 c8 3c 92 65 c7 bb 74 16 a7 3c
       -0.017802328 0.02442528 -0.006085106 0.020396449
0003b0 3a 15 9d 3b c1 e8 af bb fd d0 d7 bc 97 8b c4 3c
       0.00479379 -0.0053683226 -0.02634477 0.023992343
0003c0 85 ee 8a 3c bc 9c d6 ba 1f 9c a7 bc 82 7e 15 ba
       0.016959438 -0.0016373615 -0.020460187 -0.000570275
0003d0 24 f7 90 bc 30 ac 09 3b d4 86 bd bb 73 a8 45 bc
       -0.01769597 0.0021007173 -0.005783895 -0.012064087
0003e0 6c af c5 bc 3c bb bd 3c 6a cf 0e bb 39 28 9c bb
       -0.0241315 0.02316057 -0.002179111 -0.004765537
0003f0 d3 6b 11 bc 65 4b 85 3b fa 57 72 bc 94 6b 53 3c
       -0.008875805 0.0040678256 -0.014791483 0.012904067

layer1.bias f4 [32]
000000 25 1e da 3c bf 8f a7 bc 60 03 83 ba 24 eb 9f 3c
       0.026625702 -0.020454286 -0.0009995513 0.019521303
000010 f5 61 5f bc 63 26 81 bb 87 22 93 3c e1 70 b2 bc
       -0.013634195 -0.0039413436 0.0179608 -0.02178234
000020 03 57 55 bc e8 d7 d0 bb be b9 8b 3c ee d4 7e 3c
       -0.0130212335 -0.0063733943 0.017056342 0.015553696
000030 10 dc 2a bc 4b 0b f0 3b 8b a7 bd ba 62 e9 d6 3c
       -0.010428444 0.007325565 -0.0014469487 0.026234332
000040 5a d9 d3 3b d0 4b 82 bc 11 c7 ad bc 21 ce 8e bc
       0.0064651193 -0.01590529 -0.021213086 -0.017432274
000050 c6 d6 3e bb c4 f5 0c bb 4b ae 98 bc cb aa 99 3c
       -0.0029119714 -0.0021508792 -0.018637797 0.018758198
000060 8a b1 08 3c 80 da 8a bc 8a 64 8e 3a 0a ed 8c 3c
       0.00834311 -0.016949892 0.0010863703 0.017202873
000070 65 f5 88 3c 10 9c e8 bb 59 aa 8b 3c 70 d7 36 bb
       0.016718576 -0.007098682 0.017049002 -0.0027899407

layernorm1.weight f4 [32]
000000 18 4c 80 3f d8 25 83 3f 32 0a 7d 3f 7e 51 7c 3f
       1.0023222 1.0245924 0.9884368 0.9856185
000010 ac 84 7e 3f be 3e 80 3f 7e fe 78 3f 7e 6a 79 3f
       0.9942119 1.0019147 0.97263324 0.9742812
000020 12 91 72 3f 31 5f 7f 3f ce 79 7d 3f 26 33 80 3f
       0.9475261 0.99754626 0.99013984 1.0015609
000030 10 a2 7a 3f 6f 91 72 3f 07 b4 84 3f c7 10 81 3f
       0.9790354 0.94753164 1.036744 1.0083245
000040 05 95 7c 3f 7f e5 82 3f dd 2c 78 3f 88 c8 7c 3f
       0.98664886 1.0226287 0.96943456 0.98743486
000050 3b 91 81 3f 54 72 7a 3f fa bc 7e 3f d7 1b 7e 3f
       1.0122446 0.978307 0.99507105 0.9926123
000060 02 4a 80 3f 14 5c 7d 3f f3 95 84 3f 5f d1 82 3f
       1.0022585 0.98968625 1.0358261 1.0220145
000070 56 e1 7a 3f 09 cd 76 3f 91 59 7f 3f a4 7f 83 3f
       0.98000085 0.9640661 0.9974604 1.0273328

layernorm1.bias f4 [32]
000000 8f ab 69 3c be ad 26 3d 18 40 14 bc 0b ea 16 bc
       0.014262094 0.040693037 -0.009048484 -0.009211074
000010 f0 fd 1b bc c7 3d 0b 3c 2f 17 12 3c 1f b5 55 3b
       -0.009520993 0.008498616 0.00891666 0.0032609177
000020 b3 52 31 bd ad 42 1a bc 53 0c 23 bd 68 e4 cc 3b
       -0.04329176 -0.009415311 -0.039806675 0.006252814
000030 68 71 f9 bb ad 12 0b bb be 4d 88 3c f6 c7 62 3c
       -0.007612396 -0.0021220848 0.016638633 0.01384162
000040 6c 84 b2 3c 2b 2a 36 3c e4 aa 4e bd 9b bc c6 3c
       0.02179166 0.011118452 -0.050455943 0.024259856
000050 73 2e 79 3c d4 1a 19 bc cc 52 0a bc 35 94 d6 bb
       0.015208828 -0.009344775 -0.008442592 -0.0065484294
000060 69 d0 6a 3c 63 28 89 3c db 10 89 3c 80 a2 72 3c
       0.014331915 0.01674289 0.01673167 0.014809251
000070 10 f9 59 bc 49 86 0e 3c 98 74 5f bc 46 8a 84 3c
       -0.01330401 0.008699008 -0.013638638 0.016179215

blocks.0.fcn_layer.weight f4 [32, 32]
000000 00 3b 2a 3e c0 c2 2d bd c6 36 81 3d e6 c5 e5 3c
       0.16624069 -0.042422056 0.06309275 0.028048467
000010 83 cc ab bd 6d 4d 18 be d3 2a 7f bc 7a a0 cd 3b
       -0.08388617 -0.14873286 -0.015574175 0.006275234
000020 68 4e 64 bd 45 9d d6 bc 23 b5 e7 bd a1 15 e5 3d
       -0.055738837 -0.026198039 -0.11313846 0.11185766
000030 10 98 b0 bd 31 7b 36 bd c0 12 85 bd fc 4f 17 bd
       -0.086227536 -0.04455108 -0.06497717 -0.036941513
000040 0b 03 6d 3a c1 84 df bd 2a a9 ef bd eb 9b 1a 3d
       0.0009041286 -0.10913993 -0.11702187 0.03774635
000050 91 87 b2 3d e4 fe 0f be 1d bb 98 3b 3d 22 0a 3e
       0.087172635 -0.14062077 0.0046609775 0.13489623
000060 e5 1d 36 3d b8 6e 19 3e 8c 88 21 be ee 9e 6c 3e
       0.044462103 0.14983642 -0.15774745 0.23107502
000070 8c c4 81 3d ae 66 f0 3c 0b a3 0c be f5 e7 3c be
       0.063363165 0.029345836 -0.13734071 -0.1844786
000080 db 6f 9c 3d 33 4f a8 bd 5c 33 15 3e 50 9f 25 bd
       0.07638522 -0.08218231 0.14570373 -0.040435135
000090 1a 2b cb 3d 54 61 0c be 04 78 23 3e 7b 1e d0 3d
       0.0992033 -0.13709003 0.15963751 0.10162064
0000a0 42 d1 78 3d 9b d6 1c be 6d f4 0a be 38 ef 7f 3d
       0.06074644 -0.1531624 -0.13569804 0.062483996
0000b0 a9 aa 2a 3e e6 36 82 3d c3 a7 22 3e a8 0b 2d bd
       0.16666664 0.06358127 0.15884309 -0.042247444
0000c0 84 98 1b be aa 58 e1 3d e3 ee 40 bd 30 5c 0a bc
       -0.15194899 0.110032395 -0.04710282 -0.008444831
0000d0 cf 0c 02 3e 1f 9f e5 bd 72 dd 3a 3d 5c 96 20 be
       0.12700199 -0.112119906 0.045621343 -0.15682358
0000e0 b4 60 92 3d cb de 53 bd 6c fd c8 bd 3e 3a 86 bc
       0.07147351 -0.051726144 -0.098139614 -0.016385194
0000f0 ae 36 06 be 8b 2e 27 3e d7 3f c8 bd ff 71 fe 3d
       -0.13106796 0.16326348 -0.097778015 0.12424087
000100 7e 74 ad 3d 7a 8a b4 bd 9e d1 b6 3d 6d a0 09 3c
       0.08469485 -0.08815475 0.089267 0.008400065
000110 94 fb 00 be ac f4 7a bd 3b 43 1b be 1f ec 24 be
       -0.1259597 -0.061268494 -0.15162365 -0.16105698
000120 ae d0 47 3d d8 2e f4 3d de 38 11 3e 9c 46 fc 3d
       0.048782997 0.11922997 0.1418185 0.12318155
000130 66 e4 11 bd d6 13 87 bd a7 59 40 3d 05 09 86 3c
       -0.03561821 -0.0659558 0.0469605 0.016361723
000140 d3 0d fa bc ec 1c a7 3d 60 c5 2c 3e 1a 22 f2 3d
       -0.03052417 0.08159813 0.16872168 0.118229106
000150 5b 32 6e bd 9f f2 ca bd b5 9e 54 3d 14 12 da 3b
       -0.05815349 -0.099095576 0.051909167 0.006654987
000160 e2 e1 c7 3d a7 a3 33 3d e3 65 b8 bd 27 af 11 bd
       0.097598806 0.043857243 -0.09003808 -0.03556743
000170 5f 9b b0 bd f9 d1 f7 bc e3 fe 02 3e 6e e3 29 be
       -0.08623385 -0.03025149 0.12792544 -0.16590664
000180 7b 67 05 3e fc 87 42 3c 12 2d b6 bd f5 4f e2 bd
       0.13027756 0.0118732415 -0.08895315 -0.11050407
000190 81 ee 0f 3e 71 52 08 be 2a fe 99 bd fc d5 3b bd
       0.14055826 -0.13312699 -0.07519181 -0.04585837
0001a0 73 a4 35 3d 0d 30 df 3c 42 ad 12 3d aa d7 2e 3e
       0.044346284 0.027244592 0.035809763 0.17074457
0001b0 23 c9 fa 38 58 30 00 3e de 7b 1f 3c a0 eb 8d 3d
       0.000119583936 0.12518442 0.009734122 0.069297075
0001c0 4c aa f8 bd 28 d4 83 bc 4f b1 b1 3d cd bb e0 3d
       -0.121418566 -0.016092375 0.08676397 0.1097332
0001d0 12 e8 0a be da 2b 28 be 2a 5c 2a 3e a9 d1 1a 3e
       -0.1356509 -0.16422978 0.1663672 0.15119042
0001e0 74 c7 06 3e 0e 02 30 bd dd bf 45 be fd c7 3c 3e
       0.13162023 -0.04297071 -0.19311471 0.18435664
0001f0 81 6f 13 be 6e eb c6 bd a7 6f 03 be 5b bd fb bd
       -0.14398004 -0.097128734 -0.1283556 -0.12291976
000200 62 06 df bd c2 86 17 be 87 c4 12 be cd 35 31 3d
       -0.10889889 -0.147975 -0.14332782 0.0432642
000210 ca aa 09 3e b0 1f f3 3d 7c 4c f0 3d 21 00 33 be
       0.13444057 0.11871278 0.11733338 -0.17480518
000220 26 19 83 3d 0d 45 47 3b a3 59 13 bd a6 08 8b bd
       0.06401281 0.0030406148 -0.035974156 -0.06788759
000230 af 14 c8 bd 3b 1e 22 bd 47 25 09 3d f8 d4 af 3d
       -0.0976957 -0.03957961 0.033482816 0.085855424
000240 31 fa 1e 3e 3d ef 7b 3c 55 81 03 3e f8 7c c8 bd
       0.15525128 0.015376863 0.12842305 -0.09789461
000250 60 04 10 3e 45 c8 e8 3d a1 45 ee 3d 58 27 47 3c
       0.14064169 0.113663234 0.116343744 0.012155376
000260 be 93 20 3e 34 4d 8a 3d cb 94 eb bc 2d 57 c8 3d
       0.15681359 0.067530066 -0.028757473 0.097822525
000270 65 47 17 bd db d1 07 3e c0 d4 ab bd e9 a5 42 be
       -0.03693332 0.13263647 -0.08390188 -0.19008602
000280 4c 2e f7 bd c4 f5 58 bd be b1 a6 bd ad 8f c3 3c
       -0.12069377 -0.052968755 -0.081393704 0.02387222
000290 eb 41 17 3e 1e 78 ff 3d 7b 74 2c be 95 5c d8 bd
       0.1477124 0.124740824 -0.16841309 -0.105645336
0002a0 4c 4a b0 3d f9 cf b8 3c 93 55 7a bd d9 03 d4 bd
       0.08607921 0.022560107 -0.061116766 -0.103522964
0002b0 91 4b d7 3d 66 73 16 3d 8d b3 30 3e 27 a3 e8 bd
       0.1051246 0.036731146 0.17255993 -0.11359244
0002c0 34 f4 17 be cd 79 a9 3d 13 08 fe bb 26 45 8c bc
       -0.1483925 0.08275185 -0.0077524274 -0.017122816
0002d0 49 1d 09 3e 6f 0c 16 3e 00 7b 40 3d 8b a9 72 3d
       0.13390078 0.1465318 0.046992302 0.05924372
0002e0 d9 b2 c9 3d 7a 47 a9 3d d2 e8 2c be a9 1c df bd
       0.098485656 0.08265586 -0.16885689 -0.10894138
0002f0 77 bb bd bd 42 74 a4 3d b9 77 89 3d 43 9f 2d be
       -0.09264272 0.08029987 0.067122884 -0.16955285
000300 c6 1e a9 bd 73 a9 69 3d de 9d dc 3d a5 d8 d1 3c
       -0.08257823 0.057046365 0.10772298 0.025616
000310 74 bc 48 bc 83 eb d4 3c 8f a1 1f 3e 40 d2 34 be
       -0.012251962 0.025991207 0.15588973 -0.17658329
000320 86 d5 dd bc 7c 9a 85 3d 70 89 2f 3d c6 54 ae bd
       -0.027079355 0.06523606 0.04285568 -0.08512263
000330 18 56 d1 bd 86 d8 95 bd a8 f0 36 bd f2 d2 93 3d
       -0.10221499 -0.07316689 -0.0446631 0.07217969
000340 59 58 0c 3d d0 8e 19 3d d1 c7 63 3d 52 e0 fb bc
       0.034263942 0.037489712 0.05561048 -0.030746613
000350 2e e5 e8 bd 0a 3e 0d bd 48 eb cb bd 16 50 19 be
       -0.113718376 -0.034482993 -0.09956986 -0.14971957
000360 6a 8c 90 bc b7 07 1f be a8 ca a0 bd 3b b9 d5 bd
       -0.01764508 -0.15530287 -0.078511536 -0.104357205
000370 78 bf 40 bd 3a 46 b0 3d 6b 56 20 be 55 af 30 bc
       -0.0470576 0.08607145 -0.15657966 -0.01078399
000380 ab 4f 99 3d 0d 35 39 3e 94 08 f7 3d 8a 4c ed bd
       0.074858986 0.18086644 0.12062183 -0.11586864
000390 23 8e 03 3e 89 bb 93 3d ab ef bd 3d 6f c7 ca 39
       0.1284719 0.07213504 0.09274229 0.00038677032
0003a0 54 38 75 3e 38 34 0b 3e c9 39 14 3d a8 67 e1 bd
       0.23947269 0.13594139 0.03618792 -0.11006099
0003b0 51 fc e8 bd d5 57 4e ba f7 6f bb bd 7e 4c f7 bd
       -0.113762505 -0.00078713644 -0.09152215 -0.120751366
0003c0 d1 81 3a bd 62 bb 83 bd 2f 32 4a bd 24 99 ab bd
       -0.04553396 -0.06432225 -0.049364265 -0.08378819
0003d0 db 08 00 be 88 0a b3 bd a4 20 dd 3d 1e 03 6b 3d
       -0.12503378 -0.08742243 0.10797241 0.05737602
0003e0 e7 56 cb bd 39 e5 08 3e 75 21 18 be 3f 3e 5a bd
       -0.09928685 0.13368692 -0.14856513 -0.05328202
0003f0 45 e4 c4 bd cf dc 4c bd 20 66 0e be 5f 92 28 be
       -0.096138515 -0.050015267 -0.13906145 -0.16462086

blocks.0.fcn_layer.bias f4 [32]
000000 9b 6a 16 3e 08 6e 9c bd 1f b2 07 3e 97 7b 11 3e
       0.14689104 -0.07638174 0.13251542 0.14207302
000010 b0 53 2b be d9 83 0d 3d ee f0 9f 3d ac 7e a6 3d
       -0.16731143 0.034549568 0.078096256 0.081296295
000020 0a 3e 0f 3e 9d 2a cf 3d 1c 55 cb 3d 28 3e dd 3d
       0.1398851 0.1011555 0.09928343 0.10802871
000030 74 81 04 bd c5 c6 d8 3d 9b 2e 24 3e 11 1f 15 be
       -0.03235002 0.10584787 0.16033404 -0.14562632
000040 04 fe 40 3e c4 d0 35 3e 80 c1 3c bc 0f e8 28 be
       0.188469 0.17755419 -0.011520743 -0.16494773
000050 61 54 a9 3d e5 b1 1f be 1d d2 a5 3d 30 08 b5 3d
       0.08268047 -0.15595205 0.080967166 0.08839452
000060 a5 e9 17 3d 11 4f 05 be 53 c4 17 3e 24 7a b8 bb
       0.037088055 -0.13018443 0.14820985 -0.0056297947
000070 b0 00 82 3d bb c1 5e bc 3b 57 a1 bc cc 30 0e 3e
       0.063477874 -0.013595994 -0.019694915 0.13885802

blocks.0.layer_norm.weight f4 [32]
000000 80 40 8a 3f a1 ba 9b 3f a1 a0 86 3f e0 c2 82 3f
       1.0800934 1.216633 1.051777 1.0215721
000010 3d 2b 80 3f bf 46 7f 3f 03 8c 80 3f aa 75 8e 3f
       1.0013195 0.99717325 1.0042728 1.1129658
000020 75 be 81 3f 5f 44 a3 3f 5a 0f 9c 3f 09 47 81 3f
       1.0136248 1.275524 1.2192185 1.0099803
000030 a1 36 9b 3f f0 e8 a9 3f 1e 31 9c 3f 36 bf 90 3f
       1.2126046 1.3274212 1.2202489 1.1308353
000040 2a 9f 8d 3f 68 b0 9f 3f 37 13 8e 3f e3 7a 80 3f
       1.1064198 1.247571 1.1099614 1.0037502
000050 91 73 9d 3f 75 dc 7e 3f 0d 32 82 3f 15 de a2 3f
       1.2300893 0.9955514 1.0171524 1.2724024
000060 73 0f 87 3f 29 0b 69 3f 75 52 86 3f 5e e7 a4 3f
       1.055159 0.91032654 1.0493914 1.2883108
000070 e8 7b 8d 3f 2b c4 80 3f 8f 5d 7f 3f 5f 9d 86 3f
       1.1053438 1.0059866 0.99752134 1.0516776

blocks.0.layer_norm.bias f4 [32]
000000 5d 37 5f 3d 9a c4 66 3e af 8c 0d 3d 94 64 d4 3b
       0.054496158 0.22535935 0.034557994 0.0064817164
000010 bc 27 87 3a 5b db 32 bb e8 04 ac 3b cd 7b 3b 3d
       0.0010311524 -0.002729139 0.0052496083 0.045772363
000020 8e fe 22 3c 46 32 7f 3e 3a 9a 68 3e 0c 96 f6 3b
       0.009948386 0.24921522 0.22715083 0.007525211
000030 26 28 69 3e 9b b5 8c 3e e3 3d 69 3e a7 7a 60 3d
       0.22769222 0.27482304 0.22777514 0.05480447
000040 8e eb 5b 3d 16 49 75 3e f2 f4 9c 3d 3d 70 41 3b
       0.05369144 0.23953661 0.07663907 0.0029516362
000050 13 38 72 3e d6 a7 5e bc 14 0c 0a 3d 63 45 7f 3e
       0.23654203 -0.01358982 0.033702925 0.24928813
000060 4f 07 18 3d 74 6b 8e bd 74 2b 0a 3d e8 65 82 3e
       0.037116345 -0.06954089 0.033732846 0.25468373
000070 99 b8 c1 3d 44 7d 76 3c 7e 38 a2 bc 9c 2e 84 3d
       0.09459037 0.015044514 -0.019802328 0.064542025

last_layer.weight f4 [1, 32]
000000 71 65 5d 3e c2 0d ba be fc 26 2c 3e 02 7e c1 3d
       0.21620728 -0.3633862 0.16811746 0.09447862
000010 b1 f8 05 bd 55 75 07 3d 87 be a5 3d 3f e9 22 3e
       -0.032707874 0.03307088 0.08092981 0.15909289
000020 d8 58 8d 3d 20 08 b2 be 61 19 be be 9c cd 17 3e
       0.06901711 -0.34771824 -0.37128738 0.14824528
000030 84 8e ad be ed 70 a2 be cb 94 b4 be dd a8 55 3e
       -0.33897793 -0.3172678 -0.3526977 0.20865197
000040 5c fb bf 3d 4f ba ad be ec 0d 3a 3e 37 ab 15 3e
       0.09374115 -0.33931205 0.18169373 0.14616095
000050 c0 65 a4 be 11 90 a8 bd f7 b9 0c bc ce 25 ac be
       -0.3210888 -0.082306035 -0.008589259 -0.33622593
000060 79 3e d6 3d f0 ad 22 bc 6c 42 96 3d ac 38 a9 be
       0.104611345 -0.009929165 0.07336888 -0.3305105
000070 22 b5 d8 3d bc fe 9b 3b 33 22 0d 3e f8 06 a0 3d
       0.10581423 0.0047605913 0.13782577 0.07813829
